…
put_shape=(50, 50, 3))) # Add a max pooling layer model.add(MaxPooling2D((4, 4))) # Add a convolutional layer model.add(Conv2D(filters=15, kernel_size=5, padding=&#39;same&#39;, activation=&#39;relu&#39;)) # Add another max pooling layer model.add(MaxPooling2D((4, 4))) # Flatten and feed to output layer model.add(Flatten()) model.add(Dense(3, activation=&#39;softmax&#39;)) # Summarize the model model.summary() . _________________________________________________________________ Layer (type) Output Shape Param # ================================================================= conv2d_1 (Conv2D) (None, 50, 50, 5) 380 _________________________________________________________________ max_pooling2d_1 (MaxPooling2 (None, 12, 12, 5) 0 _________________________________________________________________ conv2d_2 (Conv2D) (None, 12, 12, 15) 1890 _________________________________________________________________ max_pooling2d_2 (MaxPooling2 (None, 3, 3, 15) 0 _________________________________________________________________ flatten_1 (Flatten) (None, 135) 0 _________________________________________________________________ dense_1 (Dense) (None, 3) 408 ================================================================= Total params: 2,678 Trainable params: 2,678 Non-trainable params: 0 _________________________________________________________________ . 6. Compile the model . After we have defined a neural network in Keras, the next step is to compile it! . model.compile(optimizer=&#39;rmsprop&#39;, loss=&#39;categorical_crossentropy&#39;, metrics
…
