…
2, kernel_size=3, activation=&#39;relu&#39;), tf.keras.layers.BatchNormalization(), tf.keras.layers.MaxPooling2D(), tf.keras.layers.Flatten(), tf.keras.layers.Dense(128, activation=&#39;relu&#39;), tf.keras.layers.Dropout(0.2), tf.keras.layers.Dense(32, activation=&#39;relu&#39;), tf.keras.layers.Dropout(0.2), tf.keras.layers.Dense(10, activation=&#39;softmax&#39;), ]) model.summary() . Model: &#34;sequential&#34; _________________________________________________________________ Layer (type) Output Shape Param # ================================================================= conv2d (Conv2D) (None, 254, 254, 64) 1792 batch_normalization (BatchN (None, 254, 254, 64) 256 ormalization) max_pooling2d (MaxPooling2D (None, 127, 127, 64) 0 ) conv2d_1 (Conv2D) (None, 125, 125, 32) 18464 batch_normalization_1 (Batc (None, 125, 125, 32) 128 hNormalization) max_pooling2d_1 (MaxPooling (None, 62, 62, 32) 0 2D) conv2d_2 (Conv2D) (None, 60, 60, 32) 9248 batch_normalization_2 (Batc (None, 60, 60, 32) 128 hNormalization) max_pooling2d_2 (MaxPooling (None, 30, 30, 32) 0 2D) conv2d_3 (Conv2D) (None, 28, 28, 32) 9248 batch_normalization_3 (Batc (None, 28, 28, 32) 128 hNormalization) max_pooling2d_3 (MaxPooling (None, 14, 14, 32) 0 2D) flatten (Flatten) (None, 6272) 0 dense (Dense) (None, 128) 802944 dropout (Dropout) (None, 128) 0 dense_1 (Dense) (None, 32) 4128 dropout_1 (Dropout) (None, 32) 0 dense_2 (Dense) (None, 10) 330 ================================================================= Total params: 846,794 Trainable params: 846,474 Non-trainable params: 320 _________________________________________________________________ . Approach-2 . input_layer = tf.keras.layers.Input(shape=(img_dim, img_dim, 3)) pretrained = tf.keras.applications.mobilenet_v2.MobileNetV2(include_top=False, weights=&#39;imagenet&#39;, input_
…
ct (Conv2D) (None, 128, 128, 16 512 [&#39;expanded_conv_depthwise_relu[0] ) [0]&#39;] expanded_conv_project_BN (Batc (None, 128, 128, 16 64 [&#39;expanded_conv_project[0][0]&#39;] hNormalization) ) block_1_expand (Conv2D) (None, 128, 128, 96 1536 [&#39;expanded_conv_project_BN[0][0]&#39; ) ] block_1_expand_BN (BatchNormal (None, 128, 128, 96 384 [&#39;block_1_expand[0][0]&#39;] ization) ) block_1_expand_relu (ReLU) (None, 128, 128, 96 0 [&#39;block_1_expand_BN[0][0]&#39;] ) block_1_pad (ZeroPadding2D) (None, 129, 129, 96 0 [&#39;block_1_expand_relu[0][0]&#39;] ) block_1_depthwise (DepthwiseCo (None, 64, 64, 96) 864 [&#39;block_1_pad[0][0]&#39;] nv2D) block_1_depthwise_BN (BatchNor (None, 64, 64, 96) 384 [&#39;block_1_depthwise[0][0]&#39;] malization) block_1_depthwise_relu (ReLU) (None, 64, 64, 96) 0 [&#39;block_1_depthwise_BN[0][0]&#39;] block_1_project (Conv2D) (None, 64, 64, 24) 2304 [&#39;block_1_depthwise_relu[0][0]&#39;] block_1_project_BN (BatchNorma (None, 64, 64, 24) 96 [&#39;block_1_project[0][0]&#39;] lization) block_2_expand (Conv2D) (None, 64, 64, 144) 3456 [&#39;block_1_project_BN[0][0]&#39;] block_2_expand_BN (BatchNormal (None, 64, 64, 144) 576 [&#39;block_2_expand[0][0]&#39;] ization) block_2_expand_relu (ReLU) (None, 64, 64, 144) 0 [&#39;block_2_expand_BN[0][0]&#39;] block_2_depthwise (DepthwiseCo (None, 64, 64, 144) 1296 [&#39;block_2_expand_relu[0][0]&#39;] nv2D) block_2_depthwise_BN (BatchNor (None, 64, 64, 144) 576 [&#39;block_2_depthwise[0][0]&#39;] malization) block_2_depthwise_relu (ReLU) (None, 64, 64, 144) 0 [&#39;block_2_depthwise_BN[0][0]&#39;] block_2_project (Conv2D) (None, 64, 64, 24) 3456 [&#39;block_2_depthwise_relu[0][0]&#39;] block_2_project_BN (BatchNorma (None, 64, 64, 24) 96 [&#39;block_2_project[0][0]&#39;] lization) block_2_add (Add) (None, 64, 64, 24) 0 [&#39;block_1_project_BN[0][0]&#39;, &#39;block_2_project_BN[0][0]&#39;] block_3_expand (Conv2D) (None, 64, 64, 144) 3456 [&#39;block_2_add[0][0]&#39;] block_3_expand_BN (BatchNormal (None, 64, 64, 144) 576 [&#39;block_3_expand[0][0]&#39;] ization) block_3_expand_relu (ReLU) (None, 64, 64, 144) 0 [&#39;block_3_expand_BN[0][0]&#39;] block_3_pad (ZeroPadding2D) (None, 65, 65, 144) 0 [&#39;block_3_expand_relu[0][0]&#39;] block_3_depthwise (DepthwiseCo (None, 32, 32, 144) 1296 [&#39;block_3_pad[0][0]&#39;] nv2D) block_3_depthwise_BN (BatchNor (None, 32, 32, 144) 576 [&#39;block_3_depthwise[0][0]&#39;] malization) block_3_depthwise_relu (ReLU) (None, 32, 32, 144) 0 [&#39;block_3_depthwise_BN[0][0]&#39;] block_3_project (Conv2D) (None, 32, 32, 32) 4608 [&#39;block_3_depthwise_relu[0][0]&#39;] block_3_project_BN (BatchNorma (None, 32, 32, 32) 128 [&#39;block_3_project[0][0]&#39;] lization) block_4_expand (Conv2D) (None, 32, 32, 192) 6144 [&#39;block_3_project_BN[0][0]&#39;] block_4_expand_BN (BatchNormal (None, 32, 32, 192) 768 [&#39;block_4_expand[0][0]&#39;] ization) block_4_expand_relu (ReLU) (None, 32, 32, 192) 0 [&#39;block_4_expand_BN[0][0]&#39;] block_4_depthwise (DepthwiseCo (None, 32, 32, 192) 1728 [&#39;block_4_expand_relu[0][0]&#39;] nv2D) block_4_depthwise_BN (BatchNor (None, 32, 32, 192) 768 [&#39;block_4_depthwise[0][0]&#39;] malization) block_4_depthwise_relu (ReLU) (None, 32, 32, 192) 0 [&#39;block_4_depthwise_BN[0][0]&#39;] block_4_project (Conv2D) (None, 32, 32, 32) 6144 [&#39;block_4_depthwise_relu[0][0]&#39;] block_4_project_BN (BatchNorma (None, 32, 32, 32) 128 [&#39;block_4_project[0][0]&#39;] lization) block_4_add (Add) (None, 32, 32, 32) 0 [&#39;block_3_project_BN[0][0]&#39;, &#39;block_4_project_BN[0][0]&#39;] block_5_expand (Conv2D) (None, 32, 32, 192) 6144 [&#39;block_4_add[0][0]&#39;] block_5_expand_BN (BatchNormal (None, 32, 32, 192) 768 [&#39;block_5_expand[0][0]&#39;] ization) block_5_expand_relu (ReLU) (None, 32, 32, 192) 0 [&#39;block_5_expand_BN[0][0]&#39;] block_5_depthwise (DepthwiseCo (None, 32, 32, 192) 1728 [&#39;block_5_expand_relu[0][0]&#39;] nv2D) block_5_depthwise_BN (BatchNor (None, 32, 32, 192) 768 [&#39;block_5_depthwise[0][0]&#39;] malization) block_5_depthwise_relu (ReLU) (None, 32, 32, 192) 0 [&#39;block_5_depthwise_BN[0][0]&#39;] block_5_project (Conv2D) (None, 32, 32, 32) 6144 [&#39;block_5_depthwise_relu[0][0]&#39;] block_5_project_BN (BatchNorma (None, 32, 32, 32) 128 [&#39;block_5_project[0][0]&#39;] lization) block_5_add (Add) (None, 32, 32, 32) 0 [&#39;block_4_add[0][0]&#39;, &#39;block_5_project_BN[0][0]&#39;] block_6_expand (Conv2D) (None, 32, 32, 192) 6144 [&#39;block_5_add[0][0]&#39;] block_6_expand_BN (BatchNormal (None, 32, 32, 192) 768 [&#39;block_6_expand[0][0]&#39;] ization) block_6_expand_relu (ReLU) (None, 32, 32, 192) 0 [&#39;block_6_expand_BN[0][0]&#39;] block_6_pad (ZeroPadding2D) (None, 33, 33, 192) 0 [&#39;block_6_expand_relu[0][0]&#39;] block_6_depthwise (DepthwiseCo (None, 16, 16, 192) 1728 [&#39;block_6_pad[0][0]&#39;] nv2D) block_6_depthwise_BN (BatchNor (None, 16, 16, 192) 768 [&#39;block_6_depthwise[0][0]&#39;] malization) block_6_depthwise_relu (ReLU) (None, 16, 16, 192) 0 [&#39;block_6_depthwise_BN[0][0]&#39;] block_6_project (Conv2D) (None, 16, 16, 64) 12288 [&#39;block_6_depthwise_relu[0][0]&#39;] block_6_project_BN (BatchNorma (None, 16, 16, 64) 256 [&#39;block_6_project[0][0]&#39;] lization) block_7_expand (Conv2D) (None, 16, 16, 384) 24576 [&#39;block_6_project_BN[0][0]&#39;] block_7_expand_BN (BatchNormal (None, 16, 16, 384) 1536 [&#39;block_7_expand[0][0]&#39;] ization) block_7_expand_relu (ReLU) (None, 16, 16, 384) 0 [&#39;block_7_expand_BN[0][0]&#39;] block_7_depthwise (DepthwiseCo (None, 16, 16, 384) 3456 [&#39;block_7_expand_relu[0][0]&#39;] nv2D) block_7_depthwise_BN (BatchNor (None, 16, 16, 384) 1536 [&#39;block_7_depthwise[0][0]&#39;] malization) block_7_depthwise_relu (ReLU) (None, 16, 16, 384) 0 [&#39;block_7_depthwise_BN[0][0]&#39;] block_7_project (Conv2D) (None, 16, 16, 64) 24576 [&#39;block_7_depthwise_relu[0][0]&#39;] block_7_project_BN (BatchNorma (None, 16, 16, 64) 256 [&#39;block_7_project[0][0]&#39;] lization) block_7_add (Add) (None, 16, 16, 64) 0 [&#39;block_6_project_BN[0][0]&#39;, &#39;block_7_project_BN[0][0]&#39;] block_8_expand (Conv2D) (None, 16, 16, 384) 24576 [&#39;block_7_add[0][0]&#39;] block_8_expand_BN (BatchNormal (None, 16, 16, 384) 1536 [&#39;block_8_expand[0][0]&#39;] ization) block_8_expand_relu (ReLU) (None, 16, 16, 384) 0 [&#39;block_8_expand_BN[0][0]&#39;] block_8_depthwise (DepthwiseCo (None, 16, 16, 384) 3456 [&#39;block_8_expand_relu[0][0]&#39;] nv2D) block_8_depthwise_BN (BatchNor (None, 16, 16, 384) 1536 [&#39;block_8_depthwise[0][0]&#39;] malization) block_8_depthwise_relu (ReLU) (None, 16, 16, 384) 0 [&#39;block_8_depthwise_BN[0][0]&#39;] block_8_project (Conv2D) (None, 16, 16, 64) 24576 [&#39;block_8_depthwise_relu[0][0]&#39;] block_8_project_BN (BatchNorma (None, 16, 16, 64) 256 [&#39;block_8_project[0][0]&#39;] lization) block_8_add (Add) (None, 16, 16, 64) 0 [&#39;block_7_add[0][0]&#39;, &#39;block_8_project_BN[0][0]&#39;] block_9_expand (Conv2D) (None, 16, 16, 384) 24576 [&#39;block_8_add[0][0]&#39;] block_9_expand_BN (BatchNormal (None, 16, 16, 384) 1536 [&#39;block_9_expand[0][0]&#39;] ization) block_9_expand_relu (ReLU) (None, 16, 16, 384) 0 [&#39;block_9_expand_BN[0][0]&#39;] block_9_depthwise (DepthwiseCo (None, 16, 16, 384) 3456 [&#39;block_9_expand_relu[0][0]&#39;] nv2D) block_9_depthwise_BN (BatchNor (None, 16, 16, 384) 1536 [&#39;block_9_depthwise[0][0]&#39;] malization) block_9_depthwise_relu (ReLU) (None, 16, 16, 384) 0 [&#39;block_9_depthwise_BN[0][0]&#39;] block_9_project (Conv2D) (None, 16, 16, 64) 24576 [&#39;block_9_depthwise_relu[0][0]&#39;] block_9_project_BN (BatchNorma (None, 16, 16, 64) 256 [&#39;block_9_project[0][0]&#39;] lization) block_9_add (Add) (None, 16, 16, 64) 0 [&#39;block_8_add[0][0]&#39;, &#39;block_9_project_BN[0][0]&#39;] block_10_expand (Conv2D) (None, 16, 16, 384) 24576 [&#39;block_9_add[0][0]&#39;] block_10_expand_BN (BatchNorma (None, 16, 16, 384) 1536 [&#39;block_10_expand[0][0]&#39;] lization) block_10_expand_relu (ReLU) (None, 16, 16, 384) 0 [&#39;block_10_expand_BN[0][0]&#39;] block_10_depthwise (DepthwiseC (None, 16, 16, 384) 3456 [&#39;block_10_expand_relu[0][0]&#39;] onv2D) block_10_depthwise_BN (BatchNo (None, 16, 16, 384) 1536 [&#39;block_10_depthwise[0][0]&#39;] rmalization) block_10_depthwise_relu (ReLU) (None, 16, 16, 384) 0 [&#39;block_10_depthwise_BN[0][0]&#39;] block_10_project (Conv2D) (None, 16, 16, 96) 36864 [&#39;block_10_depthwise_relu[0][0]&#39;] block_10_project_BN (BatchNorm (None, 16, 16, 96) 384 [&#39;block_10_project[0][0]&#39;] alization) block_11_expand (Conv2D) (None, 16, 16, 576) 55296 [&#39;block_10_project_BN[0][0]&#39;] block_11_expand_BN (BatchNorma (None, 16, 16, 576) 2304 [&#39;block_11_expand[0][0]&#39;] lization) block_11_expand_relu (ReLU) (None, 16, 16, 576) 0 [&#39;block_11_expand_BN[0][0]&#39;] block_11_depthwise (DepthwiseC (None, 16, 16, 576) 5184 [&#39;block_11_expand_relu[0][0]&#39;] onv2D) block_11_depthwise_BN (BatchNo (None, 16, 16, 576) 2304 [&#39;block_11_depthwise[0][0]&#39;] rmalization) block_11_depthwise_relu (ReLU) (None, 16, 16, 576) 0 [&#39;block_11_depthwise_BN[0][0]&#39;] block_11_project (Conv2D) (None, 16, 16, 96) 55296 [&#39;block_11_depthwise_relu[0][0]&#39;] block_11_project_BN (BatchNorm (None, 16, 16, 96) 384 [&#39;block_11_project[0][0]&#39;] alization) block_11_add (Add) (None, 16, 16, 96) 0 [&#39;block_10_project_BN[0][0]&#39;, &#39;block_11_project_BN[0][0]&#39;] block_12_expand (Conv2D) (None, 16, 16, 576) 55296 [&#39;block_11_add[0][0]&#39;] block_12_expand_BN (BatchNorma (None, 16, 16, 576) 2304 [&#39;block_12_expand[0][0]&#39;] lization) block_12_expand_relu (ReLU) (None, 16, 16, 576) 0 [&#39;block_12_expand_BN[0][0]&#39;] block_12_depthwise (DepthwiseC (None, 16, 16, 576) 5184 [&#39;block_12_expand_relu[0][0]&#39;] onv2D) block_12_depthwise_BN (BatchNo (None, 16, 16, 576) 2304 [&#39;block_12_depthwise[0][0]&#39;] rmalization) block_12_depthwise_relu (ReLU) (None, 16, 16, 576) 0 [&#39;block_12_depthwise_BN[0][0]&#39;] block_12_project (Conv2D) (None, 16, 16, 96) 55296 [&#39;block_12_depthwise_relu[0][0]&#39;] block_12_project_BN (BatchNorm (None, 16, 16, 96) 384 [&#39;block_12_project[0][0]&#39;] alization) block_12_add (Add) (None, 16, 16, 96) 0 [&#39;block_11_add[0][0]&#39;, &#39;block_12_project_BN[0][0]&#39;] block_13_expand (Conv2D) (None, 16, 16, 576) 55296 [&#39;block_12_add[0][0]&#39;] block_13_expand_BN (BatchNorma (None, 16, 16, 576) 2304 [&#39;block_13_expand[0][0]&#39;] lization) block_13_expand_relu (ReLU) (None, 16, 16, 576) 0 [&#39;block_13_expand_BN[0][0]&#39;] block_13_pad (ZeroPadding2D) (None, 17, 17, 576) 0 [&#39;block_13_expand_relu[0][0]&#39;] block_13_depthwise (DepthwiseC (None, 8, 8, 576) 5184 [&#39;block_13_pad[0][0]&#39;] onv2D) block_13_depthwise_BN (BatchNo (None, 8, 8, 576) 2304 [&#39;block_13_depthwise[0][0]&#39;] rmalization) block_13_depthwise_relu (ReLU) (None, 8, 8, 576) 0 [&#39;block_13_depthwise_BN[0][0]&#39;] block_13_project (Conv2D) (None, 8, 8, 160) 92160 [&#39;block_13_depthwise_relu[0][0]&#39;] block_13_project_BN (BatchNorm (None, 8, 8, 160) 640 [&#39;block_13_project[0][0]&#39;] alization) block_14_expand (Conv2D) (None, 8, 8, 960) 153600 [&#39;block_13_project_BN[0][0]&#39;] block_14_expand_BN (BatchNorma (None, 8, 8, 960) 3840 [&#39;block_14_expand[0][0]&#39;] lization) block_14_expand_relu (ReLU) (None, 8, 8, 960) 0 [&#39;block_14_expand_BN[0][0]&#39;] block_14_depthwise (DepthwiseC (None, 8, 8, 960) 8640 [&#39;block_14_expand_relu[0][0]&#39;] onv2D) block_14_depthwise_BN (BatchNo (None, 8, 8, 960) 3840 [&#39;block_14_depthwise[0][0]&#39;] rmalization) block_14_depthwise_relu (ReLU) (None, 8, 8, 960) 0 [&#39;block_14_depthwise_BN[0][0]&#39;] block_14_project (Conv2D) (None, 8, 8, 160) 153600 [&#39;block_14_depthwise_relu[0][0]&#39;] block_14_project_BN (BatchNorm (None, 8, 8, 160) 640 [&#39;block_14_project[0][0]&#39;] alization) block_14_add (Add) (None, 8, 8, 160) 0 [&#39;block_13_project_BN[0][0]&#39;, &#39;block_14_project_BN[0][0]&#39;] block_15_expand (Conv2D) (None, 8, 8, 960) 153600 [&#39;block_14_add[0][0]&#39;] block_15_expand_BN (BatchNorma (None, 8, 8, 960) 3840 [&#39;block_15_expand[0][0]&#39;] lization) block_15_expand_relu (ReLU) (None, 8, 8, 960) 0 [&#39;block_15_expand_BN[0][0]&#39;] block_15_depthwise (DepthwiseC (None, 8, 8, 960) 8640 [&#39;block_15_expand_relu[0][0]&#39;] onv2D) block_15_depthwise_BN (BatchNo (None, 8, 8, 960) 3840 [&#39;block_15_depthwise[0][0]&#39;] rmalization) block_15_depthwise_relu (ReLU) (None, 8, 8, 960) 0 [&#39;block_15_depthwise_BN[0][0]&#39;] block_15_project (Conv2D) (None, 8, 8, 160) 153600 [&#39;block_15_depthwise_relu[0][0]&#39;] block_15_project_BN (BatchNorm (None, 8, 8, 160) 640 [&#39;block_15_project[0][0]&#39;] alization) block_15_add (Add) (None, 8, 8, 160) 0 [&#39;block_14_add[0][0]&#39;, &#39;block_15_project_BN[0][0]&#39;] block_16_expand (Conv2D) (None, 8, 8, 960) 153600 [&#39;block_15_add[0][0]&#39;] block_16_expand_BN (BatchNorma (None, 8, 8, 960) 3840 [&#39;block_16_expand[0][0]&#39;] lization) block_16_expand_relu (ReLU) (None, 8, 8, 960) 0 [&#39;block_16_expand_BN[0][0]&#39;] block_16_depthwise (DepthwiseC (None, 8, 8, 960) 8640 [&#39;block_16_expand_relu[0][0]&#39;] onv2D) block_16_depthwise_BN (BatchNo (None, 8, 8, 960) 3840 [&#39;block_16_depthwise[0][0]&#39;] rmalization) block_16_depthwise_relu (ReLU) (None, 8, 8, 960) 0 [&#39;block_16_depthwise_BN[0][0]&#39;] block_16_project (Conv2D) (None, 8, 8, 320) 307200 [&#39;block_16_depthwise_relu[0][0]&#39;] block_16_project_BN (BatchNorm (None, 8, 8, 320) 1280 [&#39;block_16_project[0][0]&#39;] alization) Conv_1 (Conv2D) (None, 8, 8, 1280) 409600 [&#39;block_16_project_BN[0][0]&#39;] Conv_1_bn (BatchNormalization) (None, 8, 8, 1280) 5120 [&#39;Conv_1[0][0]&#39;] out_relu (ReLU) (None, 8, 8, 1280) 0 [&#39;Conv_1_bn[0][0]&#39;] flatten (Flatten) (None, 81920) 0 [&#39;out_relu[0][0]&#39;] dense (Dense) (None, 32) 2621472 [&#39;flatten[0][0]&#39;] dense_1 (Dense) (None, 16) 528 [&#39;dense[0][0]&#39;] dense_2 (Dense) (None, 10) 170 [&#39;dense_1[0][0]&#39;] ================================================================================================== Total params: 4,880,154 Trainable params: 2,622,170 Non-trainable params: 2,257,984 __________________________________________________________________________________________________ . model_checkpoint = tf.keras.callbacks.ModelCheckpoint(&#39;custom_model_checkpoint.hdf5&#
…
 royality. . model = tf.keras.models.Sequential([ tf.keras.layers.Embedding(input_dim=input_dim, output_dim=embedding_size, input_length=1, name=&#39;embeddings&#39;), tf.keras.layers.Flatten(), tf.keras.layers.Dense(8, activation=&#39;relu&#39;), tf.keras.layers.Dense(32, activation=&#39;relu&#39;), tf.keras.layers.Dense(1, activation=&#39;sigmoid&#39;), ]) . model.summary() . Model: &#34;sequential_5&#34; _________________________________________________________________ Layer (type) Output Shape Param # ================================================================= embeddings (Embedding) (None, 1, 8) 128 flatten_5 (Flatten) (None, 8) 0 dense_15 (Dense) (None, 8) 72 dense_16 (Dense) (None, 32) 288 dense_17 (Dense) (None, 1) 33 ================================================================= Total params: 521 Trainable params: 521 Non-trainable params: 0 _________________________________________________________________ . tf.keras.utils.plot_model(model) . optim = tf.keras.optimizers.Adam() loss = tf.keras.losses.binary_crossentropy model.compile(optimizer=optim, loss=loss, metrics=[&#39;acc&#39;]) . epochs = 15 batch_s
…
put_shape=(50, 50, 3))) # Add a max pooling layer model.add(MaxPooling2D((4, 4))) # Add a convolutional layer model.add(Conv2D(filters=15, kernel_size=5, padding=&#39;same&#39;, activation=&#39;relu&#39;)) # Add another max pooling layer model.add(MaxPooling2D((4, 4))) # Flatten and feed to output layer model.add(Flatten()) model.add(Dense(3, activation=&#39;softmax&#39;)) # Summarize the model model.summary() . _________________________________________________________________ Layer (type) Output Shape Param # ================================================================= conv2d_1 (Conv2D) (None, 50, 50, 5) 380 _________________________________________________________________ max_pooling2d_1 (MaxPooling2 (None, 12, 12, 5) 0 _________________________________________________________________ conv2d_2 (Conv2D) (None, 12, 12, 15) 1890 _________________________________________________________________ max_pooling2d_2 (MaxPooling2 (None, 3, 3, 15) 0 _________________________________________________________________ flatten_1 (Flatten) (None, 135) 0 _________________________________________________________________ dense_1 (Dense) (None, 3) 408 ================================================================= Total params: 2,678 Trainable params: 2,678 Non-trainable params: 0 _________________________________________________________________ . 6. Compile the model . After we have defined a neural network in Keras, the next step is to compile it! . model.compile(optimizer=&#39;rmsprop&#39;, loss=&#39;categorical_crossentropy&#39;, metrics
…
eceeding dense layer model.add(Flatten()) # fully connected layer model.add(Dense(128, activation=&#39;relu&#39;)) # add additional dropout to prevent overfitting # ... YOUR CODE FOR TASK 7 ... model.add(Dropout(0.5)) # prediction layers model.add(Dense(num_classes, activation=&#39;sigmoid&#39;, name=&#39;preds&#39;)) # show model summary # ... YOUR CODE FOR TASK 7 ... model.summary() . Model: &#34;sequential&#34; _________________________________________________________________ Layer (type) Output Shape Param # ================================================================= conv2d (Conv2D) (None, 48, 48, 32) 896 _________________________________________________________________ conv2d_1 (Conv2D) (None, 46, 46, 64) 18496 _________________________________________________________________ max_pooling2d (MaxPooling2D) (None, 23, 23, 64) 0 _________________________________________________________________ conv2d_2 (Conv2D) (None, 21, 21, 64) 36928 _________________________________________________________________ dropout (Dropout) (None, 21, 21, 64) 0 _________________________________________________________________ flatten (Flatten) (None, 28224) 0 _________________________________________________________________ dense (Dense) (None, 128) 3612800 _________________________________________________________________ dropout_1 (Dropout) (None, 128) 0 _________________________________________________________________ preds (Dense) (None, 1) 129 ================================================================= Total params: 3,669,249 Trainable params: 3,669,249 Non-trainable params: 0 _________________________________________________________________ . 8. Compile and train model . Now that we&#39;ve specified the model architecture, we will compile the model for training. For this we need to specify the loss function (what we&#39;re tryin
…
