…
put_shape=(50, 50, 3))) # Add a max pooling layer model.add(MaxPooling2D((4, 4))) # Add a convolutional layer model.add(Conv2D(filters=15, kernel_size=5, padding=&#39;same&#39;, activation=&#39;relu&#39;)) # Add another max pooling layer model.add(MaxPooling2D((4, 4))) # Flatten and feed to output layer model.add(Flatten()) model.add(Dense(3, activation=&#39;softmax&#39;)) # Summarize the model model.summary() . _________________________________________________________________ Layer (type) Output Shape Param # ================================================================= conv2d_1 (Conv2D) (None, 50, 50, 5) 380 _________________________________________________________________ max_pooling2d_1 (MaxPooling2 (None, 12, 12, 5) 0 _________________________________________________________________ conv2d_2 (Conv2D) (None, 12, 12, 15) 1890 _________________________________________________________________ max_pooling2d_2 (MaxPooling2 (None, 3, 3, 15) 0 _________________________________________________________________ flatten_1 (Flatten) (None, 135) 0 _________________________________________________________________ dense_1 (Dense) (None, 3) 408 ================================================================= Total params: 2,678 Trainable params: 2,678 Non-trainable params: 0 _________________________________________________________________ . 6. Compile the model . After we have defined a neural network in Keras, the next step is to compile it! . model.compile(optimizer=&#39;rmsprop&#39;, loss=&#39;categorical_crossentropy&#39;, metrics
…
eceeding dense layer model.add(Flatten()) # fully connected layer model.add(Dense(128, activation=&#39;relu&#39;)) # add additional dropout to prevent overfitting # ... YOUR CODE FOR TASK 7 ... model.add(Dropout(0.5)) # prediction layers model.add(Dense(num_classes, activation=&#39;sigmoid&#39;, name=&#39;preds&#39;)) # show model summary # ... YOUR CODE FOR TASK 7 ... model.summary() . Model: &#34;sequential&#34; _________________________________________________________________ Layer (type) Output Shape Param # ================================================================= conv2d (Conv2D) (None, 48, 48, 32) 896 _________________________________________________________________ conv2d_1 (Conv2D) (None, 46, 46, 64) 18496 _________________________________________________________________ max_pooling2d (MaxPooling2D) (None, 23, 23, 64) 0 _________________________________________________________________ conv2d_2 (Conv2D) (None, 21, 21, 64) 36928 _________________________________________________________________ dropout (Dropout) (None, 21, 21, 64) 0 _________________________________________________________________ flatten (Flatten) (None, 28224) 0 _________________________________________________________________ dense (Dense) (None, 128) 3612800 _________________________________________________________________ dropout_1 (Dropout) (None, 128) 0 _________________________________________________________________ preds (Dense) (None, 1) 129 ================================================================= Total params: 3,669,249 Trainable params: 3,669,249 Non-trainable params: 0 _________________________________________________________________ . 8. Compile and train model . Now that we&#39;ve specified the model architecture, we will compile the model for training. For this we need to specify the loss function (what we&#39;re tryin
…
